…
        div_factor: 10
        base_momentum: 0.85
        max_momentum: 0.95
    cosine_scheduler:
        eta_min: 0
log_dir: output//cls-50-1000
log_interval: 50
SEED: 233
CUDA_DEVICE: 0
editing:
    model_path: output/
    iters: 70
    lr: 3
    per_step_increase: 0.1
    use_flops: True
    per_flops_decrease: 0.1
    alpha: 0.5
    max_value_alpha: 4
    max_grad_decline: 0
config_path: configs/cls.yaml
2021-08-26 22:06:59,057 Setting environments.
2021-08-26 22:06:59,057 Loading the dataset.
2021-08-26 22:06:59,145 Constructing model on the cpu:0.
2021-08-26 22:06:59,145 MLP(
  (fc): Sequential(
    (0): BatchNorm1d(27, eps=1e-05, momentum=0.1, affine=True, track_running_stats=True)
    (1): Linear(in_features=27, out_features=256, bias=True)
    (2): BatchNorm1d(256, eps=1e-05, momentum=0.1, affine=True, track_running_stats=True)
    (3): Swish()
    (4): Dropout(p=0.5, inplace=False)
  )
  (nets): ModuleList(
    (0): Sequential(
      (0): Linear(in_features=256, out_features=128, bias=True)
      (1): BatchNorm1d(128, eps=1e-05, momentum=0.1, affine=True, track_running_stats=True)
      (2): Swish()
      (3): Dropout(p=0.5, inplace=False)
      (4): Linear(in_features=128, out_features=1, bias=True)
    )
    (1): Sequential(
      (0): Linear(in_features=256, out_features=128, bias=True)
      (1): BatchNorm1d(128, eps=1e-05, momentum=0.1, affine=True, track_running_stats=True)
      (2): Swish()
      (3): Dropout(p=0.5, inplace=False)
      (4): Linear(in_features=128, out_features=1, bias=True)
    )
    (2): Sequential(
      (0): Linear(in_features=256, out_features=128, bias=True)
      (1): BatchNorm1d(128, eps=1e-05, momentum=0.1, affine=True, track_running_stats=True)
      (2): Swish()
      (3): Dropout(p=0, inplace=False)
      (4): Linear(in_features=128, out_features=2, bias=True)
    )
  )
)
2021-08-26 22:06:59,370 | valid | epoch   0 | Avg loss 1.01999| top1_loss 1.07587| top5_loss 0.53652| flops_loss 0.88131| params_loss 1.58627
2021-08-26 22:06:59,372 New Main Loss 1.0758711099624634
2021-08-26 22:06:59,562 | valid | epoch   1 | Avg loss 0.92095| top1_loss 1.06450| top5_loss 0.47965| flops_loss 0.77409| params_loss 1.36554
2021-08-26 22:06:59,566 New Main Loss 1.0645042657852173
…
